Model: "sequential"
_________________________________________________________________
 Layer (type)                Output Shape              Param #   
=================================================================
 conv2d (Conv2D)             (None, 2, 2, 1)           5         
                                                                 
 conv2d_1 (Conv2D)           (None, 1, 1, 1)           5         
                                                                 
 flatten (Flatten)           (None, 1)                 0         
                                                                 
 dense (Dense)               (None, 5)                 10        
                                                                 
 dense_1 (Dense)             (None, 5)                 30        
                                                                 
 dense_2 (Dense)             (None, 10)                60        
                                                                 
=================================================================
Total params: 110 (440.00 Byte)
Trainable params: 110 (440.00 Byte)
Non-trainable params: 0 (0.00 Byte)
_________________________________________________________________
Epoch 1/10
   1/1250 [..............................] - ETA: 34:57 - loss: 2.3191 - accu
…
